demo04训练图片分类器/cifar_net.pth (torch, 251391 bytes, 10 tensors)

conv1.weight f4 [6, 3, 5, 5]
-0.16668336 -0.4684983 -0.591666 -0.4287466 -0.38333017 0.108737476 0.1423018 -0.1597788
-0.31712568 -0.14004123 0.21113604 0.5400037 0.44741338 -0.02022472 -0.09211733 0.3826852
0.45310828 0.4326179 0.58497274 0.16789655 0.1790129 0.24064168 0.21167359 0.32500625
0.5718482 -0.14606021 -0.3681862 -0.22661322 0.08885712 0.29191035 0.0047025857 -0.0053043873
-0.22191177 -0.469793 -0.1447712 0.082917675 0.27887845 0.09231851 -0.3616702 -0.48611188
0.1442242 0.24506342 0.21763578 0.020761143 -0.38213298 -0.10366156 -0.22091454 -0.077123724
0.10793092 -0.023629963 0.46607995 0.16301243 0.078205466 0.15731996 0.28020415 0.55750287
0.5881825 -0.06113151 -0.40193945 -0.14884393 0.24104324 0.6519711 0.49083623 0.009438371
-0.2379208 0.05778455 0.061393168 0.09438121 0.13164684 -0.20093966 -0.026648507 -0.48724374
-0.3618737 -0.04518612 -0.10922257 -0.10240243 -0.024511848 0.051487733 0.22344986 0.7921299
-0.21801747 -0.21349281 -0.4166303 -0.10070001 0.25689372 -0.38490662 -0.618808 -0.44703168
-0.2229967 0.068632774 -0.42496645 -0.8770655 -0.60248804 -0.14434738 0.248367 -0.6408996
-0.6813946 -0.28011018 0.0061204745 0.48163846 -0.53976923 0.09386765 -0.24053031 -0.0865851
-0.2718421 0.1631152 0.35293037 0.26617312 -0.07073111 -0.20497964 0.09046581 0.12169357
0.21082109 0.031543836 -0.27493408 0.21589284 0.26085702 0.06740287 -0.12159387 -0.24382518
-0.15225103 0.29874703 0.074716374 -0.22009379 -0.25962484 -0.21652871 0.45537776 0.30413753
0.019519942 -0.65991485 0.35533696 0.931877 0.6582477 0.24022032 -0.17800307 0.436939
0.733842 0.5862767 0.41843677 -0.16654977 0.3540215 0.7754337 0.30780685 0.039915152
-0.25693908 0.10754871 0.69350153 0.52512395 -0.06358503 -0.32423288 -0.17558865 0.2632214
0.41560352 -0.38976353 -0.06645316 -0.26339135 0.6815017 -0.09225826 -0.2382787 0.045195393
-0.070523284 -0.4007241 -0.49113968 0.5250872 0.27161413 -0.6619905 -0.87545055 0.2076484
0.76973665 0.7573828 -0.32964087 -0.14856598 0.04516354 0.07484605 0.29569972 0.52244544
0.64788234 0.18924476 -0.55371743 -0.04623069 0.12818073 0.48871687 -0.27382 -0.30534726
0.20175284 0.14675963 -0.4465532 -0.4241785 0.19477496 0.25558782 -0.20305885 -1.0174919
-0.15520868 0.49857318 0.19636399 -0.14095888 -0.14570163 -0.1185521 -0.28868464 -0.04899099
0.03997041 -0.026436506 -0.06616044 -0.5729388 -0.24987589 -0.31182078 0.3405466 -0.20338821
-0.11920159 0.19678737 -0.27208102 -0.4755227 -0.17833869 0.70243317 0.46808156 -0.5198232
-0.97908103 0.21639717 1.1158488 0.43605468 -0.12796362 0.036824346 0.49923244 0.32667547
0.51811635 0.10450446 0.3908746 -0.120842576 -0.27685007 -0.046644688 0.074569464 0.06388147
-0.03597389 -0.026699405 -0.09367601 0.45459342 -0.7178266 0.1717675 0.3503528 -0.46373966
1.3524351 -1.981028 -0.19391602 1.6541286 -0.82098055 1.4119203 -1.4105159 -1.1322544
1.219556 -0.4977377 -0.29838508 -0.19938578 -0.09672733 0.17534111 0.34455365 -0.10279572
00000000: 0baf 2abe 02df efbe 6c77 17bf ad84 dbbe
00000010: da43 c4be c1b1 de3d 90b7 113e 0e9d 23be
00000020: 4c5e a2be f866 0fbe 0c34 583e af3d 0a3f
00000030: 5e13 e53e 50ae a5bc 03a8 bcbd 51ef c33e
00000040: cffd e73e 1880 dd3e c6c0 153f 13ed 2b3e
00000050: 284f 373e c66a 763e f6c0 583e 3867 a63e
00000060: a564 123f cf90 15be e782 bcbe 4c0d 68be
00000070: b9fa b53d 4675 953e 2618 9a3b 6dd0 adbb
00000080: d73c 63be b588 f0be e73e 14be bed0 a93d
00000090: 28c9 8e3e 7d11 bd3d d62c b9be a8e3 f8be
000000a0: 82af 133e e8f1 7a3e eadb 5e3e 4613 aa3c
000000b0: efa6 c3be 834c d4bd 6c37 62be 0bf3 9dbd
000000c0: e30a dd3d a093 c1bc 08a2 ee3e bbec 263e
000000d0: 302a a03d 7c18 213e eb76 8f3e 82b8 0e3f
000000e0: 2193 163f 0965 7abd 02cb cdbe 8b6a 18be
000000f0: 0ad4 763e 94e7 263f e34e fb3e 66a3 1a3c
00000100: 83a1 73be 7eaf 6c3d 6777 7b3d f04a c13d
00000110: 6ece 063e 20c3 4dbe f84d dabc 0378 f9be
00000120: 8247 b9be 1515 39bd 15b0 dfbd 5db8 d1bd
00000130: 12cd c8bc cde4 523d 0ad0 643e 06c9 4a3f
00000140: f93f 5fbe dc9d 5abe 9150 d5be cf3b cebd
00000150: 9387 833e 7b12 c5be 336a 1ebf 56e1 e4be
00000160: 3f59 64be 578f 8c3d 3495 d9be 5d87 60bf
00000170: a83c 1abf cdcf 13be eb53 7e3e ff11 24bf
00000180: e06f 2ebf 9a6a 8fbe 438e c83b 5199 f63e
00000190: 512e 0abf af3d c03d 944d 76be 8753 b1bd
000001a0: e32e 8bbe ac07 273e 4ab3 b43e d847 883e
000001b0: 79db 90bd 2fe6 51be 2346 b93d 7a3a f93d
000001c0: 7ce1 573e 1c34 013d 29c4 8cbe 0313 5d3e
000001d0: 0d8f 853e 840a 8a3d 3506 f9bd 4fad 79be
000001e0: b2e7 1bbe 5ff5 983e e604 993d 4460 61be
000001f0: 8ced 84be b4b9 5dbe 4627 e93e eab7 9b3e
00000200: 49e8 9f3c 2ef0 28bf baee b53e 7e8f 6e3f
00000210: ec82 283f 51fc 753e 7046 36be 78b6 df3e
00000220: 12dd 3b3f 3b16 163f 583d d63e 068c 2abe
00000230: 4e42 b53e d382 463f dc98 9d3e 127e 233d
00000240: 858d 83be 8042 dc3d 5189 313f 866e 063f
00000250: de38 82bd da01 a6be 83cd 33be f5c4 863e
00000260: fcc9 d43e 168f c7be 9818 88bd 3bdb 86be
00000270: e576 2e3f e6f1 bcbd 55ff 73be ce1e 393d
00000280: 836e 90bd b62b cdbe a976 fbbe 1d6c 063f
00000290: 0211 8b3e 3678 29bf 871d 60bf c8a1 543e
000002a0: 760d 453f d7e3 413f b0c6 a8be ae21 18be
000002b0: 67fd 383d e348 993d f465 973e fcbe 053f
000002c0: 9edb 253f 61c9 413e 6dc0 0dbf 645c 3dbd
000002d0: cf41 033e 1939 fa3e 2332 8cbe 7a56 9cbe
000002e0: 4c98 4e3e 2848 163e 9fa2 e4be ed2d d9be
000002f0: 1673 473e 68dc 823e a9ee 4fbe 2d3d 82bf
00000300: 06ef 1ebe fc44 ff3e a413 493e 8657 10be
00000310: cf32 15be 72cb f2bd 79ce 93be c7aa 48bd
00000320: 03b8 233d 5f91 d8bc 207f 87bd 1eac 12bf
00000330: 77df 7fbe f9a6 9fbe 205c ae3e 0045 50be
00000340: f71f f4bd a182 493e 344e 8bbe b677 f3be
00000350: 6b9e 36be a9d2 333f 63a8 ef3e 2213 05bf
00000360: 0ea5 7abf 3897 5d3e 22d4 8e3f 8f42 df3e
00000370: e508 03be 20d5 163d 659b ff3e 0242 a73e
00000380: 46a3 043f 6f06 d63d b720 c83e 507c f7bd
00000390: 4bbf 8dbe 800e 3fbd e0b7 983d 4ad4 823d
000003a0: 5c59 13bd b6b8 dabc 35d9 bfbd 78c0 e83e
000003b0: 7cc3 37bf d2e3 2f3e 7161 b33e 496f edbe
000003c0: 981c ad3f 5392 fdbf ec91 46be 7cba d33f
000003d0: c82b 52bf ceb9 b43f c98b b4bf b6ed 90bf
000003e0: 691a 9c3f 7ad7 febe eec5 98be c92b 4cbe
000003f0: fa18 c6bd 9f8c 333e 5669 b03e 9086 d2bd

conv1.bias f4 [6]
-0.40836895 0.33144993 -0.5638582 -0.64220864 -1.1326123 -0.69427097
00000000: bc15 d1be ceb3 a93e 0359 10bf c967 24bf
00000010: 71f9 90bf bebb 31bf

conv2.weight f4 [16, 6, 5, 5]
-0.31005993 -0.40385386 -0.15523838 -0.05133612 -0.40387902 0.26282927 0.12632973 -0.22090647
-0.27981094 -0.25941613 0.14427401 -0.18623178 -0.2152553 -0.15320288 -0.08689585 0.34975395
-0.32925034 0.058708385 0.0620068 -0.17146425 0.3046416 0.058917325 -0.45322087 -0.121094175
0.09328873 -0.076069415 -0.56009257 -0.49307624 -0.25333956 -0.17363314 -0.26061338 -0.5424204
-0.35688308 -0.5253366 -0.55403787 -0.2238862 -0.34910285 -0.6353505 -0.6636328 -0.5398464
-0.023789158 -0.29879463 -0.77497303 -0.64267 -0.35871077 0.12075024 -0.46777365 -0.59818083
-0.6071651 -0.37995607 -0.10130043 -0.5758946 0.24517126 0.48450285 0.08890047 0.17522179
0.27497452 0.28291857 -0.116656125 -0.08713611 -0.1969161 0.29794437 0.07399787 -0.44680125
0.2772843 0.17100848 -0.23395959 0.38701823 0.010506028 -0.17473708 0.18640451 0.3764182
0.24970865 0.01630458 -0.30083543 -0.44823167 -0.22973886 0.5208223 -0.08400694 -0.24625914
0.2838507 0.07551271 -0.58629405 -0.41662154 -0.21740843 -0.38461995 0.9025486 -0.28664544
0.6023979 0.19321053 0.22832328 -0.5340904 0.12148753 -0.7123754 0.036369268 0.34379598
0.19676644 0.041367874 0.31983167 0.040538915 -0.1562866 -0.18044199 0.43321916 0.038371887
-0.4973614 0.42672223 0.0637362 -0.23889546 0.118436 0.033449512 0.38522512 0.15351509
-0.5102882 -0.6110322 0.31984833 -0.029522305 -0.095717244 0.10978352 -0.114369415 -0.26379752
0.3835805 0.07902748 0.08603576 -0.121572144 -0.23887318 -0.2670937 0.04011561 0.6642646
0.25221196 -0.21331075 -0.16623671 0.3200308 -0.40140966 -0.25174186 -0.06633943 0.2833602
-0.40675518 -0.38052213 0.071672395 0.22019544 -0.16909304 -0.47766903 0.04576277 -0.17150138
-0.11195914 -0.52983683 -0.62417716 -0.2094549 -0.17587176 0.42172527 -0.30938494 -0.2952013
-0.21027477 -0.06945911 -0.31203833 0.17624275 0.050202012 0.040987603 -0.108837545 -0.07760204
-0.30015948 0.05921653 -0.08099269 -0.43750006 -0.46109357 -0.21695583 -0.37549174 -0.3673457
-0.48427173 -0.40640056 0.20514691 -0.067166984 -0.13569483 -0.44429368 -0.37692857 -0.1314372
0.17988421 -0.06961993 -0.10772127 0.2559068 -0.06602108 0.034528412 0.14448816 0.3343449
0.3478221 -0.20844236 0.044277 0.16446222 0.32513145 -0.09609484 -0.10648292 0.085269436
0.1631995 0.023633093 -0.17768466 -0.32404587 -0.3318193 -0.102646075 -0.3824199 -0.71021754
0.21708569 -0.14165741 -0.12960523 -0.139844 -0.123961695 -0.024490478 -0.0135364095 -0.03702436
0.17104484 -0.25978753 0.11737694 0.07098253 0.08032701 -0.18809064 -0.8639747 0.07413489
0.0056333453 -0.5952431 -0.65133834 0.7501893 -0.45530692 0.113220565 0.19748046 0.85801744
0.17875648 -0.16757937 -0.021534706 0.035717465 -0.07583829 0.295147 0.16900235 -0.046156053
-0.24934433 0.28393486 -0.166055 -0.18584232 0.2523075 0.42288497 -0.14561139 -0.040434808
0.16326004 0.04593564 0.42706823 0.16068913 0.29669136 0.17859055 0.023819 -0.39610317
-0.36714378 -0.5432175 -0.15407126 0.18706225 -0.24668445 -0.09473923 -0.122970335 0.0345782
00000000: 2dc0 9ebe efc5 cebe cff6 1ebe d345 52bd
00000010: 3bc9 cebe 8f91 863e 955c 013e 4e35 62be
00000020: 6143 8fbe 31d2 84be 91bc 133e 8bb3 3ebe
00000030: e36b 5cbe 37e1 1cbe 74f6 b1bd f312 b33e
00000040: 8093 a8be 3478 703d d8fa 7d3d 5394 2fbe
00000050: fcf9 9b3e 4b53 713d 910c e8be 3900 f8bd
00000060: 290e bf3d 48ca 9bbd 3a62 0fbf 7d74 fcbe
00000070: b9b5 81be e3cc 31be 1e6f 85be 10dc 0abf
00000080: 61b9 b6be 767c 06bf 6dd5 0dbf 6d42 65be
00000090: 9cbd b2be 55a6 22bf d7e3 29bf 6033 0abf
000000a0: 7be1 c2bc 9cfb 98be a264 46bf 0586 24bf
000000b0: f0a8 b7be e74b f73d 0780 efbe 6122 19bf
000000c0: 2c6f 1bbf 9a89 c2be 9a76 cfbd d46d 13bf
000000d0: 2d0e 7b3e c210 f83e 7311 b63d 576d 333e
000000e0: 76c9 8c3e b4da 903e 68e9 eebd 6b74 b2bd
000000f0: 60a4 49be 2a8c 983e 328c 973d 22c3 e4be
00000100: 35f8 8d3e d91c 2f3e 1a93 6fbe 4127 c63e
00000110: 7a21 2c3c 47ee 32be d3e0 3e3e e3b9 c03e
00000120: a0b3 7f3e 2f91 853c 1a07 9abe 9f7e e5be
00000130: aa40 6bbe 9c54 053f d50b acbd 5b2b 7cbe
00000140: e154 913e 68a6 9a3d 5e17 16bf 6b4f d5be
00000150: 51a0 5ebe e8ec c4be 6d0d 673f 31c3 92be
00000160: c036 1a3f fbd8 453e 94cd 693e 26ba 08bf
00000170: 74ce f83d 3c5e 36bf f1f7 143d 0706 b03e
00000180: 247d 493e 5c71 293d fac0 a33e 220c 263d
00000190: 9809 20be c9c5 38be e7ce dd3e d72b 1d3d
000001a0: 27a6 febe 567b da3e 2088 823d 03a1 74be
000001b0: 938e f23d 5b02 093d 3a3c c53e 0f33 1d3e
000001c0: 3fa2 02bf 9b6c 1cbf 29c3 a33e c3d8 f1bc
000001d0: 6707 c4bd 2fd6 e03d 833a eabd 7810 87be
000001e0: aa64 c43e 29d9 a13d 8433 b03d d1fa f8bd
000001f0: 2c9b 74be 81c0 88be 4450 243d 3f0d 2a3f
00000200: ed21 813e 226e 5abe f539 2abe 14db a33e
00000210: 9185 cdbe 4fe4 80be f8dc 87bd 9714 913e
00000220: 3742 d0be ccd3 c2be fac8 923d ea7a 613e
00000230: ba26 2dbe 0991 f4be be71 3b3d 0f9e 2fbe
00000240: d54a e5bd 63a3 07bf 13ca 1fbf 587b 56be
00000250: ba17 34be 60ec d73e b467 9ebe a024 97be
00000260: 4552 57be 9440 8ebd 7dc3 9fbe fb78 343e
00000270: a0a0 4d3d 9ee2 273d 38e6 debd d1ed 9ebd
00000280: 81ae 99be 088d 723d 7fdf a5bd 0200 e0be
00000290: 7514 ecbe ab29 5ebe 7440 c0be bc14 bcbe
000002a0: 77f2 f7be bc13 d0be 0812 523e d88e 89bd
000002b0: 96f3 0abe 767a e3be c8fc c0be 7997 06be
000002c0: 9133 383e e594 8ebd f89c dcbd 3706 833e
000002d0: 0f36 87bd aa6d 0d3d b4f4 133e 412f ab3e
000002e0: bd15 b23e ea71 55be cd5b 353d c968 283e
000002f0: a177 a63e 5fcd c4bd b813 dabd bea1 ae3d
00000300: c51d 273e 309a c13c f8f2 35be 57e9 a5be
00000310: 38e4 a9be 1b38 d2bd 8bcc c3be d1d0 35bf
00000320: b64b 5e3e a40e 11be 3cb7 04be 4433 0fbe
00000330: a1df fdbd 41a0 c8bc d1c7 5dbc dba6 17bd
00000340: 6126 2f3e df02 85be 5263 f03d 4a5f 913d
00000350: 7d82 a43d d59a 40be 722d 5dbf 09d4 973d
00000360: ed97 b83b da61 18bf 1cbe 26bf 680c 403f
00000370: fd1d e9be 2fe0 e73d 5138 4a3e 08a7 5b3f
00000380: f00b 373e ed99 2bbe 8d69 b0bc 7a4c 123d
00000390: 1b51 9bbd 821d 973e f40e 2d3e 210e 3dbd
000003a0: 1f54 7fbe e95f 913e 520a 2abe 734d 3ebe
000003b0: 732e 813e 6184 d83e 271b 15be f89e 25bd
000003c0: a42d 273e 0227 3c3d b0a8 da3e b18b 243e
000003d0: eee7 973e 71e0 363e 1020 c33c 09ce cabe
000003e0: 45fa bbbe 4d10 0bbf dbc4 1dbe 3f8d 3f3e
000003f0: d99a 7cbe a406 c2bd dfd7 fbbd dfa1 0d3d

conv2.bias f4 [16]
2.4013476 -1.8048736 0.24797648 1.047468 0.82157165 0.15011218 -0.22259691 3.313901
-0.861649 0.18178129 -0.49197072 0.1923879 -0.64399654 -1.6007477 -0.18309483 0.06551782
00000000: aeaf 1940 1906 e7bf 8ced 7d3e 6e13 863f
00000010: 8552 523f 02b7 193e 72f0 63be f416 5440
00000020: 0795 5cbf e024 3a3e 96e3 fbbe 5501 453e
00000030: f5dc 24bf 4de5 ccbf 367d 3bbe 352e 863d

fc1.weight f4 [120, 400]
0.07391324 0.124516495 -0.041505508 -0.010629962 0.022738384 0.1928978 -0.14221704 -0.066427015
0.007820818 0.056886114 -0.19156627 -0.11943106 -0.18195453 -0.005811698 0.07584524 0.11681011
-0.16709776 -0.17364766 -0.1180164 0.2401787 0.016766774 -0.055309106 -0.0053086937 -0.02209165
0.12896135 -0.03927751 -0.016026488 -0.15611044 -0.33056682 0.056503635 -0.04112416 0.055865902
0.15033843 0.0038003686 -0.036904834 0.03979898 0.048849046 -0.15214947 -0.122204706 -0.08487238
0.07171791 0.15655157 -0.05799335 -0.25324178 -0.13599238 -0.20752996 -0.010234718 0.03997056
-0.085850574 -0.13810112 -0.1122481 -0.045098152 0.041952685 -0.033112697 0.14896822 -0.071143106
0.07601918 0.17996624 -0.09818435 -0.04883182 0.04755849 -0.051165007 0.010618995 -0.16386363
-0.082497194 0.09509345 -0.010970709 0.021543138 -0.08646691 -0.13977282 -0.0064558233 0.017128708
0.11321063 0.034678213 0.09434709 0.071159355 0.11859663 -0.07000054 -0.056659717 -0.11138098
0.07400732 0.071766146 -0.10215775 -0.056616474 0.21736541 0.0228962 -0.01148118 0.0118277315
0.069938764 -0.20881027 -0.039704885 0.104259916 -0.14654502 0.10554868 -0.056095988 0.088490486
-0.16562147 -0.24363041 0.0012202235 -0.025357781 0.023156306 0.08574585 0.05678772 -0.093618125
0.017868685 0.031223081 0.17743905 0.09277053 -0.09811229 -0.043926418 -0.07459778 -0.03007996
-0.092030555 -0.109385304 -0.021242168 -0.10095438 -0.096784286 0.09801944 0.114814505 0.20987087
-0.116385594 -0.07573271 0.09216455 -0.06321246 -0.061809693 0.09805149 0.31269914 0.22117636
0.04876694 0.08273558 -0.049694873 -0.05473918 0.10547192 -0.103811935 -0.19911127 0.09779756
0.1325364 -0.24446794 -0.034716196 0.06791311 -0.074211 -0.011763853 -0.038176455 -0.2548636
0.024624832 -0.03208199 -0.10834717 -0.05865404 -0.028913353 0.074536026 -0.022489106 -0.046946798
-0.0055653476 0.024205023 -0.06640744 -0.13528664 0.13579191 0.019236019 -0.12007766 0.03167226
-0.049449872 0.017046666 0.07842279 -0.110788666 0.02557725 -0.075726174 -0.026804905 -0.07996828
-0.17220265 0.14891452 -0.08778806 -0.009380416 0.0012331819 -0.068106934 -0.108936094 0.075140275
-0.05186002 -0.0345355 -0.1502761 -0.15978944 -0.10409465 -0.08290812 -0.05045842 0.07214354
-0.018320411 -0.1897646 0.0075350325 -0.08679884 -0.17178464 -0.09148562 -0.03635746 0.024786012
-0.058059257 -0.036727704 -0.0040612263 -0.04445171 0.021203741 0.037798654 -0.09292975 0.094967306
0.12533608 0.16146952 0.20010675 0.0977639 0.056416776 -0.09658614 -0.10126962 -0.025099427
0.054726873 0.13098417 -0.053491816 -0.16177931 0.14461446 0.054094248 0.013084811 -0.26719874
0.0597019 0.29634768 0.051780578 0.062837794 -0.10246854 -0.016766403 0.05728676 -0.08023922
-0.01998447 0.029819233 0.09933251 0.0022755326 0.005662596 0.04054724 0.024238162 -0.06971048
-0.25060475 -0.033745684 0.07588363 -0.20031662 -0.088406734 -0.06792603 -0.0645539 -0.060193297
0.14354749 0.29206118 0.007927346 -0.2521403 0.02238651 0.17385636 0.1656434 -0.1185624
-0.27098513 0.026213864 0.011408075 0.04371636 -0.054619662 0.16826087 0.05217638 0.016338892
00000000: d35f 973d 8102 ff3d ae01 2abd 4b29 2ebc
00000010: d945 ba3c 0087 453e 58a1 11be e30a 88bd
00000020: e322 003c 6a01 693d f329 44be 4698 f4bd
00000030: 4a52 3abe 0e70 bebb c054 9b3d 243a ef3d
00000040: ad1b 2bbe b1d0 31be 95b2 f1bd 68f1 753e
00000050: 795a 893c cd8b 62bd 8df4 adbb 8cf9 b4bc
00000060: 720e 043e 74e1 20bd fb49 83bc 6adb 1fbe
00000070: 0e40 a9be 5b70 673d cf71 28bd a5d3 643d
00000080: 51f2 193e 9b0f 793b 8629 17bd 4104 233d
00000090: f015 483d 12cd 1bbe 7646 fabd 92d1 adbd
000000a0: d7e0 923d 0e4f 203e 6f8a 6dbd e8a8 81be
000000b0: 9641 0bbe bc82 54be 85af 27bc 2cb8 233d
000000c0: 6dd2 afbd 616a 0dbe 55e2 e5bd d7b8 38bd
000000d0: 94d6 2b3d 2ea1 07bd 208b 183e 7ab3 91bd
000000e0: f2af 9b3d 1249 383e e014 c9bd e003 48bd
000000f0: b1cc 423d 6692 51bd 4bfb 2d3c decb 27be
00000100: 4af4 a8bd 5bc0 c23d 7dbe 33bc 3c7b b03c
00000110: 9015 b1bd 9b20 0fbe 5f8b d3bb 8151 8c3c
00000120: fada e73d be0a 0e3d 0c39 c13d ffbb 913d
00000130: cae2 f23d 715c 8fbd 0514 68bd b61b e4bd
00000140: 2691 973d 21fa 923d 1538 d1bd ade6 67bd
00000150: 0a95 5e3e d090 bb3c 8f1b 3cbc 1ac9 413c
00000160: 0e3c 8f3d 5cd2 55be 97a1 22bd 3986 d53d
00000170: e60f 16be e829 d83d e8c4 65bd 803a b53d
00000180: ad98 29be 407a 79be e8ef 9f3a 1fbb cfbc
00000190: 4bb2 bd3c 859b af3d 3e9a 683d dcba bfbd
000001a0: 5961 923c 8cc7 ff3c 95b2 353e 7afe bd3d
000001b0: 19ef c8bd 30ec 33bd b9c6 98bd 406a f6bc
000001c0: 847a bcbd 6705 e0bd 0e04 aebc 2cc1 cebd
000001d0: d736 c6bd 6bbe c83d de23 eb3d 64e8 563e
000001e0: 925b eebd c019 9bbd c5c0 bc3d 8975 81bd
000001f0: 292c 7dbd 38cf c83d 1a1a a03e 0e7c 623e
00000200: d8bf 473d 4671 a93d da8c 4bbd 3136 60bd
00000210: a901 d83d 5a9b d4bd d3e3 4bbe 164a c83d
00000220: 9fb7 073e ce55 7abe 9232 0ebd 0716 8b3d
00000230: f0fb 97bd 2dbd 40bc ea5e 1cbd 7b7d 82be
00000240: 04ba c93c 6868 03bd 1fe5 ddbd 383f 70bd
00000250: b2db ecbc 58a6 983d 133b b8bc 494b 40bd
00000260: 855d b6bb 9d49 c63c a000 88bd 9588 0abe
00000270: 090d 0b3e db94 9d3c 47eb f5bd c6ba 013d
00000280: f38b 4abd 73a5 8b3c 219c a03d 2be5 e2bd
00000290: 6287 d13c 5316 9bbd f695 dbbc 69c6 a3bd
000002a0: e455 30be 0c7d 183e 3aca b3bd 51b0 19bc
000002b0: b8a2 a13a a67b 8bbd e319 dfbd 25e3 993d
000002c0: 2c6b 54bd 1975 0dbd fae1 19be d89f 23be
000002d0: 932f d5bd bbcb a9bd 7dad 4ebd febf 933d
000002e0: b014 96bc a751 42be 6fe8 f63b 97c3 b1bd
000002f0: 50e8 2fbe d05c bbbd 8feb 14bd 090c cb3c
00000300: 8bcf 6dbd ca6f 16bd 0914 85bb ff12 36bd
00000310: 78b3 ad3c c3d2 1a3d f451 bebd 387e c23d
00000320: 1a58 003e 4458 253e c9e8 4c3e 7138 c83d
00000330: 4715 673d f4ce c5bd 7266 cfbd 509d cdbc
00000340: 4929 603d b720 063e 3c1a 5bbd 7aa9 25be
00000350: d015 143e ee91 5d3d ad61 563c 46ce 88be
00000360: fb89 743d e2ba 973e df17 543d 1ab1 803d
00000370: 07db d1bd b259 89bc 86a5 6a3d 7654 a4bd
00000380: 79b6 a3bc 7747 f43c d86e cb3d 1a21 153b
00000390: 4c8d b93b dd14 263d 1c8f c63c 5ec4 8ebd
000003a0: 444f 80be ea38 0abd e068 9b3d cd1f 4dbe
000003b0: 970e b5bd cd1c 8bbd d634 84bd 3f8d 76bd
000003c0: 1dfe 123e 0b89 953e b3e1 013c 8918 81be
000003d0: ea63 b73c 6707 323e 6c9e 293e d8d0 f2bd
000003e0: 90be 8abe 75be d63c efe8 3a3c ed0f 333d
000003f0: deb8 5fbd 944c 2c3e e6b6 553d 24d9 853c

fc1.bias f4 [120]
-0.073097005 -0.094263144 0.08377142 -0.021745505 0.06380702 0.08892012 -0.14816396 -0.13124806
-0.13093196 -0.119580895 0.4165747 0.14972885 0.40024254 0.57014066 0.009279063 -0.034593552
-0.02606604 -0.0661619 0.005207207 -0.11709848 -0.2553478 0.0028559812 -0.032521855 0.15744045
-0.18208933 0.10818564 -0.024333427 0.09194113 0.15557389 0.4735919 0.03278544 0.19525933
-0.09802086 -0.2534669 -0.024438012 -0.13691944 -0.19062564 0.2913808 0.13839394 -0.06878782
0.078167275 0.13012646 -0.30101538 0.4699058 -0.09549323 0.065664105 -0.1742839 0.16731991
0.040958982 -0.03479445 -0.10642692 -0.12422955 0.47678763 0.026000725 -0.009130934 -0.0051189074
-0.049950104 0.0814127 -0.25529164 0.1795579 0.05083152 -0.021864899 0.27425638 0.04870246
0.32807145 -0.11784912 0.050673235 0.062462267 0.02778369 -0.076861024 -0.2015045 0.15764862
0.13464177 -0.028969007 0.22750704 -0.14555958 -0.023193244 0.120816864 -0.03183025 -0.013562136
0.052544553 -0.22200061 0.15161498 -0.04344764 -0.06836823 -0.05789134 0.043186937 0.17141579
-0.17182685 -0.10597229 0.32641503 0.09737929 0.3974313 -0.038332563 -0.047021743 0.2397811
-0.23017274 0.03089878 0.059086557 -0.05950791 -0.067798845 0.14852948 -0.11784607 0.47987306
-0.23496209 0.2586087 0.049337327 -0.08970771 0.11821519 -0.11298793 0.26529953 0.12379011
-0.037031356 0.28275058 -0.10914344 -6.588318e-05 0.06071547 -0.08767816 0.19409694 0.22663957
00000000: e2b3 95bd 090d c1bd 5a90 ab3d a123 b2bc
00000010: 41ad 823d c01b b63d 4bb8 17be e465 06be
00000020: 0713 06be d4e6 f4bd 4749 d53e 8552 193e
00000030: 97ec cc3e bdf4 113f 3607 183c f8b1 0dbd
00000040: 7388 d5bc e47f 87bd 38a1 aa3b 54d1 efbd
00000050: f2bc 82be 6a2b 3b3b a335 05bd 1238 213e
00000060: a075 3abe 6f90 dd3d e556 c7bc a24b bc3d
00000070: c34e 1f3e a37a f23e 074a 063d 10f2 473e
00000080: 29bf c8bd 6ac6 81be 3a32 c8bc 9c34 0cbe
00000090: 5e33 43be dd2f 953e 24b7 0d3e a1e0 8cbd
000000a0: 2a16 a03d df3f 053e b01e 9abe 7e97 f03e
000000b0: f491 c3bd e77a 863d 7b77 32be e955 2b3e
000000c0: 9bc4 273d a084 0ebd 5bf6 d9bd 106c febd
000000d0: 821d f43e 79ff d43c ea99 15bc 82bc a7bb
000000e0: 7b98 4cbd b4bb a63d 96b5 82be 07de 373e
000000f0: b634 503d 041e b3bc 556b 8c3e 3b7c 473d
00000100: fbf8 a73e e15a f1bd bd8e 4f3d 6fd8 7f3d
00000110: 9f9a e33c 5069 9dbd 3257 4ebe a46e 213e
00000120: 88df 093e 6950 edbc 9bf7 683e 920d 15be
00000130: c2ff bdbc d56e f73d 7060 02bd b933 5ebc
00000140: f538 573d 2154 63be f540 1b3e 27f6 31bd
00000150: a404 8cbd 781f 6dbd c9e4 303d 9f87 2f3e
00000160: 61f3 2fbe 0008 d9bd df1f a73e cb6e c73d
00000170: 1e7c cb3e 9b02 1dbd df99 40bd 2d89 753e
00000180: 67b2 6bbe 701f fd3c bf04 723d 91be 73bd
00000190: 1fda 8abd 1d18 183e 4859 f1bd ecb1 f53e
000001a0: e799 70be 5c68 843e f015 4a3d adb8 b7bd
000001b0: ce1a f23d 3766 e7bd 57d5 873e ab85 fd3d
000001c0: 31ae 17bd afc4 903e 9986 dfbd c32a 8ab8
000001d0: c9b0 783d 9b90 b3bd 59c1 463e 3414 683e

fc2.weight f4 [84, 120]
0.28335804 -0.082903266 -0.20325747 0.045957822 0.0044249836 -0.022635575 -0.012475819 -0.088372394
-0.30577806 -0.20098586 0.08421748 0.34244108 -0.009469907 0.14056341 0.19397412 0.093113445
-0.19781998 -0.09365024 -0.0860795 -0.097521916 -0.09152127 0.112027206 0.0869316 -0.23743096
0.060968656 -0.079286516 -0.16591476 0.21513335 0.09730218 0.098256506 -0.037877113 -0.009541068
8.517827e-05 -0.18710554 -0.17929485 -0.22151002 -0.005365808 -0.23039654 0.035004817 -0.114562556
0.05128312 0.118390426 -0.09201446 -0.1707751 -0.3274568 0.077608764 -0.17584349 -0.14533058
0.1633014 -0.14384931 0.10112064 0.007407166 0.10338161 0.0035703972 0.09172792 0.06877848
-0.1451397 0.083636306 0.008165557 -0.057231836 -0.37412858 0.04490965 0.14519234 0.061540715
-0.102593556 -0.06453263 -0.10220361 -0.12996012 0.08642893 -0.105307125 -0.1376479 -0.11511765
0.148814 0.32416964 0.1620539 -0.21800683 -0.123597495 0.04599732 0.12542917 0.07449226
-0.11032704 -0.1461898 -0.06975836 0.17436625 -0.04686479 -0.061925877 -0.16735075 0.26004475
-0.09303499 -0.11957291 0.1767608 -0.29439124 0.27610135 -0.05835658 -0.35385698 -0.16916849
-0.29790953 0.08882154 -0.08553335 -0.21249948 -0.10892736 0.010323622 -0.22821796 -0.112934604
-0.06713571 -0.09260978 0.53210056 -0.24142157 -0.24214508 -0.23369081 0.24951252 0.038665265
-0.07528135 -0.06320581 0.2727976 -0.017064344 0.1217651 -0.178797 -0.10446239 0.0696
0.061550688 -0.10655654 -0.09305569 0.08626877 -0.20496815 0.016677788 -0.032900475 -0.05544444
-0.07992871 0.15539972 -0.15962799 -0.25425777 -0.0039060859 -0.26721615 0.21867765 0.009580499
0.058361568 -0.059199102 0.18940634 0.02024607 -0.11292963 -0.00435584 0.0030716406 -0.19049679
-0.051935688 -0.18448704 -0.21971188 0.17467572 -0.08867309 -0.32544327 0.11569447 -0.14625685
0.07968372 -0.22909562 -0.34070978 0.10493155 -0.20314154 0.0039064265 0.24381906 -0.09243383
0.0011307802 0.15020435 0.09630937 -0.1232086 -0.038650393 -0.17310993 -0.038964972 0.041744135
-0.15863958 -0.3181904 -0.036780063 -0.080883354 -0.17729011 -0.14953755 -0.07790289 -0.17968525
-0.06459269 0.14255695 -0.035925876 -0.093323365 0.10363791 0.24640194 0.39503914 0.046317738
-0.17693645 0.06318456 -0.24853541 -0.2363225 -0.1412071 -0.06306584 0.1940552 -0.075902306
-0.08809106 0.04408561 -0.060738478 -0.012547469 -0.009721745 -0.27474573 -0.13777375 0.15853806
0.09883134 -0.2746588 0.0045076115 -0.123007715 -0.17839156 0.16890445 -0.06349733 0.14091189
-0.31097358 0.07404364 -0.11555901 0.17554648 -0.22697687 0.17561692 -0.038408745 -0.0940399
-0.24564853 0.25774762 0.15035458 -0.10936181 -0.14250839 -0.26145178 0.23116454 0.025225533
0.066044055 -0.07237201 0.06496181 -0.14681153 -0.110254906 0.08643358 -0.25142843 -0.07557992
0.081044905 0.09988449 -0.17230313 -0.0406655 0.21965826 -0.24320182 0.28282878 -0.19496775
-0.1834569 -0.19469532 0.05096363 0.04375968 -0.11289095 0.004304585 -0.0003177299 -0.258472
0.0348754 -0.3417762 0.111611485 0.036821872 0.18478236 -0.015771942 0.06700972 -0.244526
00000000: 4e14 913e 30c9 a9bd ba22 50be 453e 3c3d
00000010: 74ff 903b 3e6e b9bc 6167 4cbc 96fc b4bd
00000020: f18e 9cbe 3dcf 4dbe 377a ac3d 7054 af3e
00000030: ab27 1bbc dbef 0f3e 27a1 463e 43b2 be3d
00000040: 5291 4abe b2cb bfbd 734a b0bd 92b9 c7bd
00000050: 816f bbbd 856e e53d 3209 b23d 1a21 73be
00000060: 45ba 793d f860 a2bd 8fe5 29be eb4b 5c3e
00000070: 5e46 c73d b53a c93d 0825 1bbd 2452 1cbc
00000080: bca1 b238 9898 3fbe 1299 37be 86d3 62be
00000090: a9d3 afbb 12ed 6bbe 3661 0f3d c69f eabd
000000a0: 400e 523d ae76 f23d 1472 bcbd abdf 2ebe
000000b0: 6ba8 a7be 58f1 9e3d 5110 34be 8ad1 14be
000000c0: 7b38 273e 3c4d 13be 5718 cf3d d0b7 f23b
000000d0: bdb9 d33d 53fd 693b d9db bb3d bbdb 8c3d
000000e0: 809f 14be 8349 ab3d d4c8 053c ee6b 6abd
000000f0: c88d bfbe 2ef3 373d 4dad 143e 1e12 7c3d
00000100: 921c d2bd af29 84bd 2050 d1bd 4414 05be
00000110: a701 b13d 43ab d7bd 92f3 0cbe cdc2 ebbd
00000120: b262 183e 90f9 a53e 75f1 253e 2f3d 5fbe
00000130: af20 fdbd b067 3c3d 8170 003e 668f 983d
00000140: 25f3 e1bd c7b2 15be 79dd 8ebd 118d 323e
00000150: 4bf5 3fbd fda5 7dbd ff5d 2bbe 9624 853e
00000160: 2189 bebd a4e2 f4bd c800 353e 73ba 96be
00000170: 285d 8d3e 4f07 6fbd be2c b5be 813a 2dbe
00000180: 9987 98be 11e8 b53d 1c2c afbd 7799 59be
00000190: 4f15 dfbd 6924 293c f8b1 69be 424a e7bd
000001a0: 727e 89bd 32aa bdbd be37 083f 3737 77be
000001b0: e1f4 77be a54c 6fbe 3680 7f3e 785f 1e3d
000001c0: 1c2d 9abd 0c72 81bd 21ac 8b3e 86ca 8bbc
000001d0: fb5f f93d 9016 37be 61f0 d5bd 728a 8e3d
000001e0: 931c 7c3d 513a dabd fb93 bebd aead b03d
000001f0: 2ce3 51be db9f 883c a6c2 06bd b619 63bd
00000200: aab1 a3bd 1b21 1f3e 8575 23be 132e 82be
00000210: 3ffd 7fbb 8ed0 88be 09ed 5f3e 86f7 1c3c
00000220: 8a0c 6f3d c27a 72bd bcf3 413e 16db a53c
00000230: a647 e7bd 6fbb 8ebb 944d 493b 9711 43be
00000240: 84ba 54bd 2cea 3cbe 27fc 60be 31de 323e
00000250: 3d9a b5bd 80a0 a6be 39f1 ec3d 5bc4 15be
00000260: 3831 a33d 0b98 6abe 8371 aebe 5ae6 d63d
00000270: 5604 50be 7b01 803b b4ab 793e f34d bdbd
00000280: b036 943a 2bcf 193e d93d c53d ca54 fcbd
00000290: e04f 1ebd bb43 31be bc99 1fbd e6fb 2a3d
000002a0: 6a72 22be dae9 a2be b1a6 16bd 2ca6 a5bd
000002b0: 8a8b 35be 5f20 19be 8d8b 9fbd 69ff 37be
000002c0: 2c49 84bd 73fa 113e 0327 13bd 5220 bfbd
000002d0: 1d40 d43d ca50 7c3e 9242 ca3e abb7 3d3d
000002e0: d42e 35be e866 813d 1180 7ebe 87fe 71be
000002f0: 9898 10be aa28 81bd 68b6 463e ab72 9bbd
00000300: 1669 b4bd 1d93 343d e9c8 78bd e693 4dbc
00000310: f447 1fbc 79ab 8cbe 9014 0dbe cd57 223e
00000320: 1668 ca3d 14a0 8cbe 96b4 933b 78eb fbbd
00000330: 47ac 36be 4af5 2c3e e30a 82bd 354b 103e
00000340: ee37 9fbe 31a4 973d 34aa ecbd 75c2 333e
00000350: a06c 68be ecd4 333e 7d52 1dbd fe97 c0bd
00000360: 4a8b 7bbe 7ff7 833e 8df6 193e 16f9 dfbd
00000370: b8ed 11be 02dd 85be 66b6 6c3e c7a5 ce3c
00000380: 1b42 873d c737 94bd b30a 853d c355 16be
00000390: 53cd e1bd 1704 b13d 3abb 80be a5c9 9abd
000003a0: dffa a53d 3d90 cc3d 3b70 30be de90 26bd
000003b0: 18ee 603e e609 79be efce 903e a0a5 47be
000003c0: 20dc 3bbe 365e 47be 3dbf 503d 5a3d 333d
000003d0: 5f33 e7bd 7a0d 8d3b fc94 a6b9 7156 84be
000003e0: 82d9 0e3d 4afd aebe 9094 e43d 88d2 163d
000003f0: 9637 3d3e 2934 81bc 643c 893d 0665 7abe

fc2.bias f4 [84]
0.91350895 -0.17359522 1.0291916 -0.23131597 0.21769111 -0.12025673 -0.04723393 0.4440814
-0.08974287 0.52426565 0.10451064 -0.04730868 0.4683176 -0.08082885 -0.29512468 0.73833466
0.23888241 0.074122675 0.144877 -0.20771626 0.02887284 0.1526049 0.7573862 -0.076858416
-0.01570086 0.28048727 0.14117076 0.9115137 0.28318807 -0.08466161 0.1468534 -0.045806903
0.009622844 -0.09246712 0.11313684 0.59471005 0.96451694 -0.08350905 0.025128864 -0.06759785
0.001000861 0.063052095 0.24646813 0.984948 -0.042022813 -0.18650979 0.32969463 0.10928298
0.05584881 -0.108119175 -0.23185441 -0.010903221 0.3181768 0.026179586 0.16408981 0.15490618
-0.16883972 0.48395178 -0.20008107 0.31160662 0.58819073 0.6329109 0.29364687 0.10469091
-0.18212232 -0.1680553 -0.20383352 0.059890438 0.12653296 0.44230017 -0.14555351 0.12518068
0.43216476 0.26587212 0.51558316 0.6304545 -0.109781675 0.50654536 0.21919951 0.9949309
0.5867142 0.21066827 0.32253578 0.44029754
00000000: b9db 693f f2c2 31be 8dbc 833f 18de 6cbe
00000010: 6bea 5e3e 2949 f6bd 5e78 41bd a35e e33e
00000020: 1ccb b7bd 4636 063f ad09 d63d bfc6 41bd
00000030: 53c7 ef3e 9989 a5bd 951a 97be 8003 3d3f
00000040: 979d 743e a1cd 973d a35a 143e 92b3 54be
00000050: bc86 ec3c 7544 1c3e 10e4 413f f267 9dbd
00000060: 179f 80bc 079c 8f3e 118f 103e f658 693f
00000070: 07fe 903e 1163 adbd bd60 163e 05a0 3bbd
00000080: 22a9 1d3c 675f bdbd 4ab4 e73d eb3e 183f
00000090: 95ea 763f cb06 abbd 0cdb cd3c be70 8abd
000000a0: 532f 833a 7521 813d 2462 7c3e 8d25 7c3f
000000b0: 1d20 2cbd 6cfc 3ebe bccd a83e c1cf df3d
000000c0: b9c1 643d 966d ddbd 3e6b 6dbe 6ca3 32bc
000000d0: 12e8 a23e 9276 d63c 2907 283e ba9f 1e3e
000000e0: 52e4 2cbe 87c8 f73e 0de2 4cbe e78a 9f3e
000000f0: ab93 163f 7306 223f e258 963e 3068 d63d
00000100: 467e 3abe b016 2cbe bcb9 50be ad4f 753d
00000110: db91 013e 2b75 e23e fb0b 15be 5d2f 003e
00000120: b344 dd3e 6420 883e 42fd 033f 7765 213f
00000130: 37d5 e0bd f5ac 013f d675 603e cbb3 7e3f
00000140: e732 163f 6cb9 573e 6923 a53e ae6e e13e

fc3.weight f4 [10, 84]
0.033522762 -0.13383672 -0.10055114 0.21261732 -0.029969402 0.00788871 -0.084768176 -0.1269314
0.09277481 -0.22781469 0.07541454 0.08915571 -0.20517148 -0.13738434 0.19772641 -0.105232514
-0.115680024 -0.16957332 0.040527448 0.20007877 0.2396317 -0.3856294 -0.049358524 0.15684326
0.19241183 0.027210513 0.15205047 -0.36784723 0.21100281 -0.0791017 -0.07276986 -0.04251616
0.20378509 0.14606749 0.018195905 -0.076606765 -0.07432239 0.07586409 -0.36579943 0.113480344
0.05965267 0.09788573 0.08673511 -0.21070217 -0.24757148 0.22977367 0.22826365 -0.047470137
-0.0038036562 0.17665404 -0.07567872 0.042852867 -0.11804845 -0.15724804 -0.061871674 0.04994831
0.17615451 0.08515711 0.1758616 -0.030050708 0.20942584 -0.10161978 -0.174009 0.15427445
0.2065787 0.21129113 0.14164399 0.06990707 0.1557081 0.18928356 -0.22050409 0.16466089
0.068047754 0.13930844 -0.27155232 0.14229232 0.07338711 -0.16302224 -0.24288116 -0.050870493
-0.009059192 0.23152626 -0.12475583 0.19577101 0.021241535 0.17928813 -0.16334966 0.10724024
0.12135982 0.022204608 -0.27451167 -0.12527098 0.051340986 0.2197175 0.05170022 -0.15173738
0.027103832 0.185325 0.17181951 -0.23871069 0.09862125 0.13326642 0.12383615 -0.17522833
-0.14086886 0.033050314 -0.100565955 0.11374005 0.019731756 0.062228188 -0.15857615 -0.2726717
-0.08970975 0.10086091 0.30541885 0.20439337 -0.14056586 -0.18418013 0.21146174 -0.16098668
-0.15122655 0.21438754 0.27327356 0.15115292 0.24837275 -0.21723624 0.18058084 -0.35394925
0.06944205 -0.025585735 0.14476115 -0.08308793 -0.02865709 0.1816973 0.11150782 -0.06864362
-0.07307697 -0.07131738 0.048718452 0.16670837 0.28652427 -0.2785257 -0.1720059 -0.13921323
-0.39026785 0.09166721 -0.29150012 0.059368446 -0.058706813 0.11981908 -0.041386794 0.0587832
-0.12261438 -0.4953481 -0.11956076 -0.13655408 -0.08478648 0.40093115 -0.08928737 -0.19596568
0.13289231 -0.23711869 0.16683054 -0.38013634 -0.041676667 0.20513542 -0.062894106 -0.04812329
0.045487933 -0.034357876 0.073249 0.0857343 -0.32401615 0.1612597 0.16113636 0.13137576
0.1096908 -0.06884442 -0.12698397 -0.14947474 -0.024463538 -0.15842992 -0.04276363 0.016098449
-0.015194818 -0.026023123 -0.10361735 0.25080436 -0.018059408 0.004395056 -0.14271346 -0.15041816
0.08562624 -0.06924594 -0.18606134 0.048590723 0.2773667 -0.18692741 -0.12505794 0.034839224
-0.011917952 0.045250043 -0.15310855 0.23163734 0.07854223 0.15763211 -0.015276473 -0.09559031
0.07321922 0.19636124 -0.038545214 0.18699208 0.13290834 0.15590298 -0.09072091 -0.11141306
0.25839487 0.028714303 0.2619865 -0.008994751 0.24072698 0.20998119 0.047263987 0.19345848
-0.028523816 0.28237233 0.07268551 -0.032735385 0.24653523 0.03660819 0.12686881 0.20388107
0.22389182 0.036613774 0.078040004 0.11277983 0.09857081 -0.057938986 0.055102866 -0.064542904
0.018631667 -0.21458012 0.010315106 0.11380121 -0.27037185 0.13862014 0.0044091227 0.27710906
0.086969875 -0.055676483 -0.15056053 0.097567365 -0.116079554 -0.033192273 0.2425377 -0.052230604
00000000: 2a4f 093d 7e0c 09be c2ed cdbd 5bb8 593e
00000010: 6482 f5bc a63f 013c f09a adbd 4efa 01be
00000020: b800 be3d 4148 69be f072 9a3d 4597 b63d
00000030: 7918 52be 7bae 0cbe cb78 4a3e 2584 d7bd
00000040: a6e9 ecbd a1a4 2dbe 1c00 263d 73e1 4c3e
00000050: 0362 753e 3771 c5be 2a2c 4abd 859b 203e
00000060: 9b07 453e 95e8 de3c 1eb3 1b3e 7956 bcbe
00000070: 1f11 583e 1200 a2bd 5d08 95bd 6d25 2ebd
00000080: 0aad 503e b792 153e 940f 953c 02e4 9cbd
00000090: 5636 98bd a25e 9b3d 104a bbbe 6268 e83d
000000a0: 5c56 743d 5078 c83d 2da2 b13d 4fc2 57be
000000b0: 6183 7dbe ca49 6b3e f2bd 693e 0c70 42bd
000000c0: c346 79bb cce4 343e 72fd 9abd 7d86 2f3d
000000d0: 63c3 f1bd a105 21be 276d 7dbd 9996 4c3d
000000e0: d961 343e da66 ae3d 1015 343e e72c f6bc
000000f0: ba73 563e 081e d0bd 6a2f 32be 1ffa 1d3e
00000100: 5e89 533e b45c 583e 1f0b 113e 702b 8f3d
00000110: f271 1f3e 8dd3 413e d3cb 61be dd9c 283e
00000120: 9f5c 8b3d dfa6 0e3e e808 8bbe 14b5 113e
00000130: fb4b 963d 4def 26be d7b5 78be 945d 50bd
00000140: 016d 14bc 3815 6d3e fc7f ffbd 3278 483e
00000150: ba02 ae3c 4f97 373e 2245 27be c5a0 db3d
00000160: 7f8b f83d 70e6 b53c cb8c 8cbe 0947 00be
00000170: ed4a 523d a0fd 603e 9cc3 533d 0b61 1bbe
00000180: db08 de3c d6c5 3d3e 74f1 2f3e 9370 74be
00000190: f0f9 c93d fe76 083e cf9d fd3d 0e6f 33be
000001a0: ed3f 10be c45f 073d 86f5 cdbd 8bf0 e83d
000001b0: 7ea4 a13c fce2 7e3d c961 22be a09b 8bbe
000001c0: bfb9 b7bd 2a90 ce3d dc5f 9c3e 7f4c 513e
000001d0: 7ff0 0fbe b799 3cbe 6d89 583e b1d9 24be
000001e0: 22db 1abe 6888 5b3e 83ea 8b3e d5c7 1a3e
000001f0: 6d55 7e3e 2d73 5ebe 2fea 383e d638 b5be
00000200: a237 8e3d 2d99 d1bc 443c 143e 012a aabd
00000210: 46c2 eabc db0e 3a3e 365e e43d 0795 8cbd
00000220: 61a9 95bd d90e 92bd 008d 473d 99b5 2a3e
00000230: 4fb3 923e ec9a 8ebe 5122 30be ea8d 0ebe
00000240: 30d1 c7be 05bc bb3d 813f 95be 542c 733d
00000250: 8e76 70bd b563 f53d 3385 29bd a7c6 703d
00000260: 401d fbbd 449e fdbe 46dc f4bd d5d4 0bbe
00000270: 89a4 adbd d946 cd3e 4cdc b6bd 3aab 48be
00000280: ec14 083e 3ecf 72be a0d5 2a3e 3ba1 c2be
00000290: 27b5 2abd 050f 523e a0ce 80bd ed1c 45bd
000002a0: 8e51 3a3d d8ba 0cbd 9203 963d 7795 af3d
000002b0: 72e5 a5be 4321 253e ee00 253e 5e87 063e
000002c0: 92a5 e03d 4efe 8cbd 1608 02be e80f 19be
000002d0: c267 c8bc 743b 22be eb28 2fbd e5e0 833c
000002e0: b0f3 78bc 722e d5bc 5535 d4bd 6e69 803e
000002f0: 53f1 93bc 6704 903b 7a23 12be 3807 1abe
00000300: cf5c af3d d1d0 8dbd dd86 3ebe 1107 473d
00000310: 0203 8e3e e669 3fbe 300f 00be 93b3 0e3d
00000320: 8443 43bc 1c58 393d 7dc8 1cbe 5732 6d3e
00000330: c0da a03d 506a 213e 2c4a 7abc dac4 c3bd
00000340: f5f3 953d ec12 493e 96e1 1dbd da7a 3f3e
00000350: 2019 083e 08a5 1f3e e2cb b9bd 882c e4bd
00000360: 554c 843e 423a eb3c 1823 863e b85e 13bc
00000370: 2281 763e 4f05 573e e297 413d fb19 463e
00000380: c7aa e9bc 1b93 903e 24dc 943d 8a15 06bd
00000390: bb73 7c3e 78f2 153d e6e9 013e 33c6 503e
000003a0: e643 653e 53f8 153d 70d3 9f3d 1df9 e63d
000003b0: 7edf c93d 6e51 6dbd 8bb3 613d 122f 84bd
000003c0: 70a1 983c e4ba 5bbe b100 293c 9c10 e93d
000003d0: 2e6e 8abe 70f2 0d3e 677a 903b 3de1 8d3e
000003e0: 431d b23d 060d 64bd 8a2c 1abe 66d1 c73d
000003f0: 1ebb edbd 9ff4 07bd ce5b 783e c2ef 55bd

fc3.bias f4 [10]
-0.55165637 -1.2870388 -0.14261542 0.88498807 0.6496802 0.27592835 0.42578462 -0.15660179
0.18287912 -0.3761347
00000000: 5a39 0dbf b0bd a4bf c709 12be 948e 623f
00000010: 7151 263f 7b46 8d3e 7100 da3e 385c 20be
00000020: aa44 3b3e ba94 c0be
